Model: "sequential"
_________________________________________________________________
Layer (type)                 Output Shape              Param #   
=================================================================
dense (Dense)                (None, 64)                576       
_________________________________________________________________
dense_1 (Dense)              (None, 64)                4160      
_________________________________________________________________
dense_2 (Dense)              (None, 12)                780       
_________________________________________________________________
dense_3 (Dense)              (None, 4)                 52        
=================================================================
Total params: 5,568
Trainable params: 5,568
Non-trainable params: 0
_________________________________________________________________
None
Model: "sequential_1"
_________________________________________________________________
Layer (type)                 Output Shape              Param #   
=================================================================
dense_4 (Dense)              (None, 64)                576       
_________________________________________________________________
dense_5 (Dense)              (None, 64)                4160      
_________________________________________________________________
dense_6 (Dense)              (None, 12)                780       
_________________________________________________________________
dense_7 (Dense)              (None, 4)                 52        
=================================================================
Total params: 5,568
Trainable params: 5,568
Non-trainable params: 0
_________________________________________________________________
None
Starting training session. Doing 2000 episodes with max. 200 steps.
Starting episode 0, current epsilon = 1
Episode ended, reward: -95.19094287196899
Episode took: 0.27832889556884766
Starting episode 1, current epsilon = 0.98
…
